binder/model.onnx (onnx, 2332 bytes, 2 tensors)

mlp.0.0.weight f4 [4, 128]
-1.2265668 -0.8421796 -0.8854147 -1.127616 0.8959155 1.2126757 -0.87265724 1.0785211
0.58790445 0.850642 -0.80851406 -0.90898794 0.8787014 0.7776029 -0.6888233 -0.82524055
0.25035498 -0.5231854 0.8079363 0.76231575 -0.71923876 0.29914582 -0.6040414 -0.6087115
1.2799271 1.0632931 -0.5841186 1.0633249 0.97583646 1.0240594 1.0868199 -1.3052338
-1.0539294 1.150225 1.1074961 -0.91118383 1.1628784 0.7376249 0.71176934 0.5961417
-1.2473066 0.67876416 -1.3951702 -0.5944597 -0.7909041 0.93589365 -0.79816544 1.206163
-1.0336083 -0.6672794 -1.1021496 0.967696 -0.98915994 -1.428559 -0.9766094 -1.3874253
1.0468045 -0.9700205 0.9747301 -1.1747893 1.2483121 -0.8945 -0.5717295 1.0680366
-0.8646127 0.9938174 -0.8580539 -0.9068384 0.48255903 0.69399315 1.0277148 -0.8867262
1.116967 0.67917424 1.1985822 -0.71015424 -0.6899517 0.9152755 -0.7446705 -0.79639614
-0.8999501 1.0557908 -1.0088105 -0.86302865 1.2260097 -0.9123032 -0.9068978 1.0075978
1.2410009 -1.1971221 -0.75781715 0.5918701 1.60428 -0.83787113 -0.64187026 -0.9610906
1.2876055 0.61387813 -0.7805718 -0.73660773 -0.6362024 1.1213269 1.1078452 -0.87519586
1.241042 -0.9843631 -1.1809297 -1.0325092 0.6104932 0.8940371 -0.048375137 0.8949314
-1.1373981 -1.2553277 -0.84223676 0.90794784 0.85014826 -0.5404508 0.95050484 -0.98682064
0.9008278 0.9481244 0.8761951 0.8538914 -0.85816455 -1.0777836 1.0110868 0.95216995
-0.9212675 -1.1172196 -0.89242536 -1.0477624 0.6163142 0.5911837 -0.9908094 1.1102308
0.65279174 1.0969801 -0.96522135 -1.0329177 1.205286 0.94431764 -0.7904173 -0.9765921
1.0602515 -0.82944614 0.86846155 1.1489178 -1.1008087 0.9900013 -0.7632415 -0.8374143
0.9648594 1.1389068 -0.97424656 1.0467803 1.1327142 0.9262717 0.8175949 -1.2747717
-0.8749862 0.9362776 1.0141957 -0.9483567 0.93143624 0.9372201 1.1293609 0.9369933
-1.0428737 1.1067762 -1.1777097 -0.5577968 -1.1026628 0.90154296 -1.0913405 1.3651572
-0.9545984 -0.95831704 -1.033227 0.63610935 -1.0655843 -1.2781771 -0.79245317 -1.5708283
0.98419404 -0.7246141 0.81570405 -1.0977572 1.112152 -0.9044107 -0.7259767 0.9258734
-0.7007828 1.2812145 -0.72804785 -0.9714518 0.5831128 0.61777705 0.9133279 -1.1503584
0.65409523 0.74762744 0.92282313 -1.0155861 -1.0235332 1.0562923 -1.217215 -0.87617826
-1.084744 1.1742467 -0.82748073 -0.8759818 1.0029252 -0.88186914 -0.44305086 1.0323571
1.1334748 -0.8543482 -0.7200912 1.1980629 1.1350161 -1.0217987 -0.6771684 -0.96993
1.0304286 1.0561378 -1.0072565 -0.85367024 -1.1395715 0.8063886 1.0003679 -0.74192196
1.0845718 -0.7965764 -0.6983355 -0.86725783 0.954586 0.7642126 0.40487775 1.2249662
-0.9614212 -0.91809875 -0.74575347 0.9768901 0.9193084 -0.94907457 0.9412992 -1.0988
0.82171106 0.9828602 0.84490556 1.0143487 -0.78269255 -1.1735586 0.84298414 0.7059363
00000000: 2400 9dbf 1599 57bf 8aaa 62bf b955 90bf
00000010: b85a 653f f538 9b3f 7766 5fbf fb0c 8a3f
00000020: e880 163f adc3 593f c7fa 4ebf 6fb3 68bf
00000030: 93f2 603f fc10 473f b956 30bf f742 53bf
00000040: 872e 803e 7aef 05bf ead4 4e3f 2027 433f
00000050: 0820 38bf a429 993e 75a2 1abf 84d4 1bbf
00000060: a7d4 a33f fd19 883f cc88 15bf 081b 883f
00000070: 6bd0 793f 6114 833f ea1c 8b3f e711 a7bf
00000080: 29e7 86bf 933a 933f 6fc2 8d3f 5843 69bf
00000090: 33d9 943f fcd4 3c3f 8436 363f be9c 183f
000000a0: bea7 9fbf 7dc3 2d3f f094 b2bf 832e 18bf
000000b0: b178 4abf ba96 6f3f 9254 4cbf 8d63 9a3f
000000c0: 474d 84bf d3d2 2abf 3d13 8dbf edba 773f
000000d0: 9639 7dbf 05db b6bf 1303 7abf 2797 b1bf
000000e0: b1fd 853f 4353 78bf e987 793f 7f5f 96bf
000000f0: b1c8 9f3f f4fd 64bf dd5c 12bf 6cb5 883f
00000100: 4257 5dbf d16a 7e3f 6ca9 5bbf 9026 68bf
00000110: fa11 f73e 89a9 313f 298c 833f 7d00 63bf
00000120: c6f8 8e3f 5dde 2d3f 246b 993f abcc 35bf
00000130: ada0 30bf 7f4f 6a3f baa2 3ebf 9ee0 4bbf
00000140: 2163 66bf 2724 873f b420 81bf 72ef 5cbf
00000150: e3ed 9c3f b48c 69bf 742a 68bf f7f8 803f
00000160: 1ed9 9e3f 4c3b 99bf 4e00 42bf cd84 173f
00000170: 0c59 cd3f b97e 56bf 9c51 24bf 090a 76bf
00000180: 42d0 a43f 1e27 1d3f 8ed3 47bf 5392 3cbf
00000190: 29de 22bf a487 8f3f dfcd 8d3f d60c 60bf
000001a0: 77da 9e3f 38ff 7bbf b428 97bf 4329 84bf
000001b0: 4849 1c3f 9edf 643f 0225 46bd 391a 653f
000001c0: 4396 91bf 94ae a0bf d49c 57bf 456f 683f
000001d0: 51a3 593f fc5a 0abf 4954 733f 47a0 7cbf
000001e0: a79c 663f 48b8 723f 524e 603f a098 5a3f
000001f0: acb0 5bbf d0f4 89bf 4b6b 813f 69c1 733f
00000200: 30d8 6bbf 0d01 8fbf fd75 64bf 141d 86bf
00000210: c4c6 1d3f d157 173f afa5 7dbf 0b1c 8e3f
00000220: 5c1d 273f d869 8c3f bf18 77bf a636 84bf
00000230: d046 9a3f cdbe 713f ca58 4abf f101 7abf
00000240: 52b6 873f 9556 54bf 7f53 5e3f bd0f 933f
00000250: 4de7 8cbf ba70 7d3f cc63 43bf c960 56bf
00000260: 0701 773f b3c7 913f 3968 79bf e6fc 853f
00000270: c7fc 903f 2420 6d3f e64d 513f b82b a3bf
00000280: 18ff 5fbf e4af 6f3f 2ad1 813f 81c7 72bf
00000290: 9b72 6e3f a8ed 6f3f e68e 903f cbde 6f3f
000002a0: e37c 85bf d8aa 8d3f 31bf 96bf c5cb 0ebf
000002b0: 0e24 8dbf 85cb 663f 0cb1 8bbf 79bd ae3f
000002c0: 9060 74bf 4454 75bf c840 84bf 10d8 223f
000002d0: 1165 88bf 4f9b a3bf 36de 4abf e710 c9bf
000002e0: 24f4 7b3f 4f80 39bf fbd1 503f 4f83 8cbf
000002f0: ff5a 8e3f 7687 67bf 9cd9 39bf 0a06 6d3f
00000300: 8066 33bf d6fe a33f 5861 3abf 11b1 78bf
00000310: e146 153f a326 1e3f dbcf 693f f23e 93bf
00000320: c972 273f 8364 3f3f 233e 6c3f bafe 81bf
00000330: 2303 83bf 9634 873f b3cd 9bbf 384d 60bf
00000340: e4d8 8abf b74d 963f c7d5 53bf 5840 60bf
00000350: da5f 803f 2dc2 61bf 90d7 e2be 4724 843f
00000360: b415 913f 90b6 5abf e657 38bf 205a 993f
00000370: 3548 913f 4dca 82bf e95a 2dbf 554d 78bf
00000380: 16e5 833f 862f 873f c8ed 80bf 228a 5abf
00000390: 7bdd 91bf 7c6f 4e3f 0e0c 803f 99ee 3dbf
000003a0: 40d3 8a3f 6eec 4bbf 1ec6 32bf 9c04 5ebf
000003b0: c05f 743f 70a3 433f 234c cf3e b1cb 9c3f
000003c0: b31f 76bf 8508 6bbf b3e9 3ebf 7815 7a3f
000003d0: cc57 6b3f 8df6 72bf fcf8 703f 7aa5 8cbf
000003e0: a85b 523f ba9c 7b3f bb4b 583f 2ed6 813f
000003f0: 8a5e 48bf 2b37 96bf cfcd 573f 3eb8 343f

mlp.0.0.bias f4 [4]
0.5388786 0.7452373 0.78707373 0.8559127
00000000: f3f3 093f dfc7 3e3f aa7d 493f 181d 5b3f
